Code/Distillation of DNN Networks into Gradient Boost tree model/trainedNN.pt (torch, 5151 bytes, 5 tensors)

hidden1.weight f4 [26, 13]
00000000: ee99 893e 8b8c c6bb 0712 efbc 482d 443f
00000010: 8ae1 043f 4d82 5a3e 9cca e93d a941 823e
00000020: 74bb efbe 3fe2 2c3f 28a0 96bd d006 3dbf
00000030: 18e4 85bd b25d 23be ca17 31bf 9027 01bf
00000040: ae03 67be 4193 713e 59f0 863a d7a1 27bf
00000050: 3277 a83b 22c0 223e b01e 1f3f afd2 9e3f
00000060: eef6 36bf b34d 55be 4547 573f 9f18 8cbd
00000070: 42e2 54bf ee19 98be 7c76 16bf 9181 1b3f
00000080: 57ca 2c3f 7e1c c7bc bc12 fa3e e67c 92bf
00000090: fe90 22bc ddb5 04bf 489d 013f 7149 84bf
000000a0: 49c0 d53e 2736 d93e 3e71 053f 2c0e c3bd
000000b0: 7971 6e3f 3e81 a4be 9ac7 5d3e 2eda 78ba
000000c0: aaf6 1cbe 013b f6be 6df0 66be 510b 1a3f
000000d0: 0194 30be b19b 013f 5530 8abf c9de 7cbe
000000e0: c7ac b4bd 66f1 443f 1d5a 95bf e5ac 863e
000000f0: a455 203e c34b a83f 5e4c 15bf 4dcc 973e
00000100: 9b9e 083f b759 b83e db2b 763e 0676 9bbf
00000110: 09a3 de3e 15a2 4dbf 481f 73bf f7b0 ca3e
00000120: cda1 3ebf 2b08 a1bf db98 ac3e f9e4 3d3f
00000130: f357 0e3f 538f 91bf c214 f1be e2f6 30bf
00000140: 3686 a1bf 3711 203f 2c96 0abf 141d 8d3d
00000150: 685e 99bf 5d73 923e 654a 503e c87a 26bf
00000160: 581e 9dbe 7896 7e3e e424 363f d77a d8be
00000170: 9ec1 1d3f 3e75 dabd 576c 053f b9bc 1b3f
00000180: 857b d0be a7c7 613e ab38 633f 00ad 773f
00000190: c9bb 63be 45bd 2a3f 52c8 c2bd 0ee7 d03e
000001a0: 28d6 333f 851a 88be 00a0 e9bd 3968 503d
000001b0: 649c 4abd 3974 903e 78d0 bcbd 3ede 863f
000001c0: ef9e 0cbf 24f9 283e e031 ba3e 0a43 a9bf
000001d0: 668b fd3e 5c32 3abe c447 1dbf 464f 103e
000001e0: 3340 bb3d e5fc c3bf f4fd 8a3f f17a 08bf
000001f0: 17c4 c6be a6be f3be b21b e8be f670 083e
00000200: 61f6 e7bf f181 a53e 0108 87bf 30fb 023e
00000210: c994 dc3d a264 aebe 74e4 86bf b90e 493e
00000220: 6e7c 2cbf 589e 2c3f 2587 4c3f 1c94 c13e
00000230: b73c ba3f de96 bebf a7ba 10be b608 7fbf
00000240: 5a01 0fbf 45a2 8cbf 3196 ddbc 5c18 f7bd
00000250: 81af 6ebe 6156 a3be aad2 063f 48eb 3d3f
00000260: cae4 4c3f ac0c cd3d c603 093f b11e c33f
00000270: 2df8 453c 9d04 92bf 1425 033f 8c56 04bf
00000280: 67ba bd3d c33d bb3e 0324 3bbe 3094 6bbf
00000290: 8a78 bf3e 44b7 a13e 2b4c e0be 0f8d e2be
000002a0: ee8c eebe 1ef4 2f3f 4fee 3bbe e8d1 263f
000002b0: 2090 8ebf 4ec8 833f 8b5c 8f3e e466 e1be
000002c0: ce7f 60be 7d62 0e3f ce72 bbbe efa1 0bbf
000002d0: 09db 033f eb96 953f 162e 203c 2f4f 963e
000002e0: 3397 193e eadf 713e f062 a93e 3cd2 4e3f
000002f0: f115 c2be 266d 6dbf 3735 a43e 301f 89bd
00000300: 86f5 c13c 12b8 113e ec27 f83e f484 683d
00000310: 1a7c f9be f7de cfbf 9864 a03f 771b 803e
00000320: 48fc e43e 6046 b63d c5c4 473f ba1c 793f
00000330: bd3b 1d3f ade4 ca3c 5df7 1e3f 57b1 91be
00000340: bb7f c4be 0335 253e 3f60 9dbd d24c 1c3f
00000350: 6662 ac3e 7bfc bdbe df1b 353e 05c7 9dbd
00000360: 063f 143e 170f 8c3f 73ca 3cbf 4dbd 5cbe
00000370: 46bb 553f 4a99 9f3e c04e f5be f5a5 28be
00000380: d1d4 2e3d bda5 90be d9aa 29bf 5d73 60bf
00000390: 7a6d a83e 922a 0f3f 236f 083d 92cf 6bbf
000003a0: 472b 05c0 3521 54bf 030f 09bf 18e3 2b3f
000003b0: 2953 48bf 5f6b 4b3f fa91 91be e9dd c4bd
000003c0: 345b 013f 8401 7dbf 49e0 433e b403 103f
000003d0: 2884 93be 2d4f a1be 9b91 933f 743f 77bf
000003e0: 2c30 da3e eed0 2abf def3 643f be3b e3be
000003f0: afd1 f23e cae3 80bf 9277 7cbe 6213 80be
0.26875252 -0.0060592345 -0.0291834 0.76631594 0.51906645 0.21338768 0.11415598 0.2544072
-0.46822703 0.67532724 -0.07354766 -0.7383852 -0.06537646 -0.1595371 -0.69176924 -0.5045099
-0.22559997 0.23591329 0.0010295018 -0.65481323 0.0051411623 0.15893605 0.621562 1.2408046
-0.71470535 -0.20830421 0.84093124 -0.068406336 -0.8315774 -0.29707283 -0.5877454 0.6074458
0.67496246 -0.024305578 0.48842418 -1.1444366 -0.009922264 -0.5184 0.5063062 -1.0334913
0.41748264 0.42424127 0.5212592 -0.095241874 0.93141896 -0.32129854 0.21658173 -0.00094929605
-0.1532847 -0.4809189 -0.22552653 0.6017352 -0.17243959 0.5062819 -1.0796 -0.24694361
-0.08822017 0.76930845 -1.1668125 0.26303783 0.1565767 1.3148121 -0.5831965 0.29648057
0.5336701 0.36005947 0.24040167 -1.2145393 0.4348376 -0.8032544 -0.94969606 0.39588138
-0.7446564 -1.2580618 0.3371037 0.7417751 0.5560295 -1.1371864 -0.4708615 -0.69126713
-1.2619083 0.6252627 -0.54135394 0.06890312 -1.1981936 0.2860364 0.2034088 -0.650311
-0.30687213 0.24862087 0.7115004 -0.4228122 0.6162356 -0.106668934 0.5211844 0.6083484
-0.40719238 0.22048818 0.88758343 0.9674835 -0.22239603 0.6669505 -0.09510864 0.4080128
0.7024865 -0.26582733 -0.11407471 0.050880644 -0.049465552 0.2821367 -0.0921945 1.0536573
-0.54930013 0.1650129 0.36366177 -1.3223584 0.49520415 -0.18183273 -0.6143763 0.1409274
0.091431044 -1.5311552 1.085875 -0.53312594 -0.3882148 -0.4760639 -0.4533363 0.13324341
-1.8122064 0.323257 -1.0549318 0.12791133 0.10770566 -0.34061152 -1.0538468 0.19634522
-0.67377365 0.67429113 0.79893714 0.3780831 1.4549779 -1.4889791 -0.14133702 -0.99622667
-0.5586144 -1.0987021 -0.027049156 -0.12065193 -0.23309137 -0.3190184 0.526652 0.74187136
0.80036604 0.100121826 0.5352138 1.5243741 0.0120830955 -1.1407658 0.5122845 -0.5169456
0.09264069 0.36570558 -0.18275456 -0.9202299 0.37396652 0.31585133 -0.43808112 -0.44248244
-0.46591896 0.6873187 -0.18352626 0.6516404 -1.1137733 1.0295503 0.28000292 -0.44023812
-0.21923754 0.5561903 -0.36611027 -0.54543966 0.51506096 1.1686682 0.009776613 0.29357287
0.14999084 0.23620573 0.33083296 0.8078954 -0.37907365 -0.9274467 0.3207185 -0.06695402
0.023676645 0.14230374 0.48467958 0.05676742 -0.48727494 -1.6239918 1.2530699 0.25020954
0.44723725 0.08900142 0.7803462 0.9730946 0.6141928 0.024767244 0.62096196 -0.28455612
-0.383787 0.16133504 -0.07684373 0.6105472 0.33668822 -0.3710669 0.17686413 -0.077039756
0.14477167 1.0942105 -0.73746413 -0.21556588 0.8348888 0.31171638 -0.47911644 -0.16469558
0.042683426 -0.28251448 -0.6627632 -0.8767603 0.32896024 0.5592433 0.033309113 -0.921136
-2.0807664 -0.8286317 -0.5353853 0.6714339 -0.7825189 0.7946071 -0.28431684 -0.096126385
0.5052979 -0.9883044 0.19128527 0.5625565 -0.28811765 -0.3150572 1.152881 -0.96581197
0.42614877 -0.6672505 0.8943461 -0.44381517 0.474256 -1.0069516 -0.24654987 -0.25014788

hidden1.bias f4 [26]
00000000: f19c ccbe 7db5 41bd d34d 6cbe d36b 1cbf
00000010: e068 e7bc 27c7 33be eb60 77be 45f6 afbe
00000020: feda 9cbe 6adb 6abf dfe7 0ebe 6341 08bf
00000030: 9eaa 9bbe d75a a6be 6833 74be 4d8d 31be
00000040: c725 e6bd 3c05 c0be be31 7d3e b371 08bf
00000050: 9494 793d e81a 49be 5ff5 7ebe 00f8 3dbf
00000060: 33fb 83bf 7519 e4be
-0.39963487 -0.04729222 -0.23076563 -0.61102027 -0.02824825 -0.1755644 -0.24158065 -0.34367576
-0.30635828 -0.9174105 -0.1395564 -0.5322477 -0.30403608 -0.3249118 -0.23847735 -0.17339058
-0.11237674 -0.37503994 0.24726006 -0.5329849 0.06093271 -0.1963917 -0.24898289 -0.7420654
-1.0311035 -0.44550672

hidden2.weight f4 [13, 26]
00000000: 63bf 79bf 1125 a4be 8e4a f83d 97dd 313c
00000010: 45ee 89bf 1e12 fa3e de37 c2bf fc46 af3e
00000020: bf7c 043f 9274 173f 23ef d23e da07 0ebf
00000030: 862a 043e dd4f 7a3f 63bb f8be 44bd 78bf
00000040: 643b d8be 5ead a73e 9ef8 95bf 8438 753d
00000050: df40 96bd e6ab c23e 278a 993f 0111 c7be
00000060: 0620 153f d8d4 4c3f d139 d2be e39f 033e
00000070: 2e3f 8bbe 1201 893e dfe8 14bf 662b 9c3f
00000080: 0473 e4be 992c 6d3d 66d6 873d ab99 753f
00000090: 5515 77be e753 fabd 0b3b 3d3f b0bd 693f
000000a0: d108 43bf b4a8 47bf 9e8c 68be 6ea2 11be
000000b0: 4b77 4cbf b755 63bf 9373 dd3d b045 9c3e
000000c0: 4b2e ea3e 7b69 93bf 5e62 6b3f 89ba 2c3f
000000d0: 0664 07bf 814e 633e 3b60 cfbe 527e 0dbf
000000e0: 52bd 2e3e ebbf 233f 1bc5 f53d 82b2 3a3f
000000f0: f1b4 1cbf 879a 8a3c d89a a93f 4bb0 3b3d
00000100: 7b80 4a3f e95d 213e bb5c 03bf e4db 043f
00000110: f0b1 76bf 6414 46bd 5162 72bf a374 92bf
00000120: 2990 f7bd eba5 90be 2c15 3b3e c868 babe
00000130: 48f3 02bd c8a0 89be c1db c1bd 684e 0ebe
00000140: 370e 75bd efe0 073d f26f 7e3d bbce c83e
00000150: 0d15 b43e d27f 45bf 556f 43bf d017 96bd
00000160: e763 2f3f 7364 15bf 810c 04bf 8537 78be
00000170: 5261 b5be 27ee f03d 186f e8be 3027 71bf
00000180: 4eff 91bd 4508 2abe 9f1b f5be ba32 533f
00000190: a5d4 d6be 3236 ba3e 0141 8abd a654 3dbe
000001a0: a06a 363e 54a6 a23e 5dee 003f aa87 ca3e
000001b0: aeea 0fbf 40cd 593f 8fec 16bf e94e 513e
000001c0: 6c61 833e 34f1 de3e ac2d 943f 1f45 65bf
000001d0: 2e9e 303e 7594 bfbe 2e4e a63e 0efd f93e
000001e0: e76a 22bf 7f40 87bf 439e 00bf bba0 31bf
000001f0: 6526 123e 672d 69bf db09 a13e 5bc6 14bf
00000200: 985f 96be f0c7 5dbf 1d65 9dbe 9f55 54bf
00000210: 452a 6dbe c853 9cbe 90ba 333e caf3 2b3f
00000220: ce87 be3d f8d6 593e b279 82bf c060 16be
00000230: 473a 51bf e0bf 5d3f bab6 d43d 36e9 3dbf
00000240: aa7c abbe 694a 353f e423 273f 9c38 aabf
00000250: 1261 083f c5bf fd3e f79b 8d3f a0c0 963f
00000260: 6dac a8be 24a4 a23e e2e2 66bf 791f a3be
00000270: 214e ba3e 00ce 033e 1c75 90be d1b7 5b3f
00000280: bec7 ca3e df59 efbe 5c5f 6fbe 5c38 32bf
00000290: 0ad9 c3be 2195 603f 514b 1bbf ddcb b7be
000002a0: eaac 263f 1865 5dbf e9c7 c5bd dabe 54bf
000002b0: cebd bc3e ba08 753e e89f 6cbe 66ff a03e
000002c0: bc06 56bf 2572 3dbf fd34 083f 0f06 d43e
000002d0: 08e5 4e3f 4efd b03e d778 00bd e2f3 eabe
000002e0: ef6f fd3e 5ded bc3d 1824 01bf 3822 f1be
000002f0: ab43 8cbe 7f7d 073e 390f a0be b73e cf3e
00000300: a3d1 d4bb 6776 0b3e add4 f0be b671 153f
00000310: ff8a 4e3e 56d5 23be 01ca b9be eccf bcbe
00000320: 51af 82bd 6fd3 ed3e 0424 1e3e c627 bbbe
00000330: b91c d0be 18ce ebbd 4915 8d3b b224 efbe
00000340: 1f9e 61bc 1762 09bf 3bb3 00be 877e cf3e
00000350: bb3e c2be 0634 f0be 9863 06bf cfab 40bf
00000360: 6064 da3e b7af 9c3e 11be 183d aab6 10bf
00000370: 0e23 19bf 9e6d c7be 70aa 75be 5a9b 18be
00000380: abb8 c5be 9f22 723c 72b6 0ebc 5957 103f
00000390: 4810 db3d f965 32bf 9d1d 28be d5a3 893f
000003a0: 7609 133f f0aa 59be debd 803e 32c6 7d3e
000003b0: 0063 983f 5f25 a1be 7b61 0bbf da0c bbbe
000003c0: bf5a 133e 3487 1ebe 4fdd d93e 20ee de3e
000003d0: 13ba 1f3f fd88 6ebf b23c 6bbb 6ff7 8fbe
000003e0: c0eb 913e d4c5 65bf 6af7 9dbc 3ac0 50bf
000003f0: 1305 3d3f 3ba5 6d3e 4ce1 2abf a897 79bf
-0.9755766 -0.3205953 0.12123595 0.010856054 -1.0775839 0.48841947 -1.5173299 0.34233844
0.5175285 0.5916225 0.41198072 -0.5548073 0.12906846 0.9777811 -0.48580465 -0.97163796
-0.4223281 0.32749456 -1.1716497 0.05986835 -0.07336592 0.38021773 1.1995286 -0.3888016
0.5825199 0.80012274 -0.41059735 0.1285396 -0.2719664 0.2675863 -0.58167833 1.2200744
-0.44619 0.05790386 0.0663269 0.95937604 -0.24129231 -0.12223034 0.7391822 0.91305065
-0.7618533 -0.77991796 -0.22709891 -0.14222118 -0.79869527 -0.88802665 0.1081306 0.30521917
0.45738444 -1.1516565 0.9194697 0.6747213 -0.52887 0.22197916 -0.40503106 -0.55270875
0.17064407 0.6396472 0.120004855 0.7292863 -0.61213595 0.016919388 1.325038 0.045822423
0.79102296 0.1575848 -0.5131337 0.51898026 -0.9636526 -0.04835929 -0.9468127 -1.1441845
-0.12088043 -0.28251585 0.18269795 -0.36408067 -0.031970292 -0.2688048 -0.09465743 -0.13897097
-0.05982801 0.033173498 0.062118478 0.39220223 0.3517231 -0.77148163 -0.76341754 -0.073287606
0.68511814 -0.583564 -0.5158158 -0.24239929 -0.35425812 0.11764174 -0.45397258 -0.9420042
-0.07128774 -0.16604717 -0.47872636 0.8249928 -0.4195911 0.36369473 -0.0675068 -0.18489322
0.17814112 0.31767523 0.50363714 0.39556628 -0.5621747 0.8507881 -0.5895471 0.20440258
0.25660264 0.43543398 1.1576438 -0.89558595 0.17247841 -0.3741795 0.3248152 0.48825878
-0.6344437 -1.0566558 -0.5024149 -0.6938588 0.14272459 -0.91084903 0.31452832 -0.58115166
-0.29369807 -0.86633205 -0.30741206 -0.8294315 -0.23160656 -0.3053267 0.17551637 0.6716887
0.093032464 0.2127341 -1.0193388 -0.14685345 -0.8172955 0.86620903 0.10386415 -0.74183977
-0.3349355 0.70816666 0.6528914 -1.3298526 0.5327312 0.4956037 1.1063222 1.1777534
-0.3294405 0.31765854 -0.90189946 -0.3185995 0.36387733 0.12871552 -0.28214347 0.85827357
0.39605516 -0.46748254 -0.2337622 -0.6961725 -0.38251525 0.8772755 -0.606618 -0.35897723
0.65107596 -0.8648238 -0.096572705 -0.83103716 0.3686356 0.2392911 -0.23107874 0.31444854
-0.83604026 -0.74002296 0.53205854 0.41410872 0.80818224 0.34568256 -0.03136524 -0.45889193
0.4949946 0.09224961 -0.504457 -0.4709642 -0.27395377 0.13231467 -0.31261614 0.40477535
-0.006494717 0.13619386 -0.4703726 0.58376634 0.2017021 -0.1599935 -0.3628693 -0.36877382
-0.06381095 0.46450374 0.15443426 -0.36553782 -0.40646914 -0.11513919 0.004305516 -0.46707684
-0.013770609 -0.536653 -0.12568371 0.4052622 -0.37938485 -0.4691469 -0.5249572 -0.7526216
0.42654705 0.3060281 0.037290636 -0.56528723 -0.59819114 -0.3895082 -0.23990798 -0.14903012
-0.38617453 0.014778762 -0.008710491 0.5638328 0.10696465 -0.6968685 -0.16417547 1.0753123
0.5743631 -0.21256614 0.25144857 0.24782637 1.1905212 -0.31473824 -0.5444562 -0.36533242
0.14390086 -0.15481263 0.42551658 0.4354105 0.623933 -0.9317778 -0.0035894332 -0.28118464
0.28500175 -0.89754987 -0.019283015 -0.81543314 0.7383587 0.23207562 -0.66750026 -0.97497034

hidden2.bias f4 [13]
00000000: 4380 94be 0ccf 89be 1b40 953c 428b 12be
00000010: 5bd7 b13e b74b dc3e 818f 0fbf 1988 013e
00000020: 1e92 15ba 0dd8 9e3d a751 8ebd 7071 27be
00000030: 599f d4be
-0.29004106 -0.26915777 0.018219044 -0.14310935 0.34734616 0.43026516 -0.56078345 0.12649573
-0.0005705672 0.07756052 -0.06949168 -0.16351867 -0.41527823

output.weight f4 [1, 13]
00000000: 0706 0840 5e1c fb3f d517 c93f 1a70 aabf
00000010: 8109 c63f ed7c c4bf b633 c13f 8598 403f
00000020: 4e6e c83f efcd d53f 2c37 773f 2f7d b6bf
00000030: 972a c6bf
2.1253679 1.9618032 1.5710398 -1.3315461 1.547165 -1.5350624 1.5093906 0.75232726
1.5658662 1.6703471 0.9656856 -1.4256953 -1.5481747
